pytorchFFNN.pt (torch, 60335 bytes, 20 tensors)

embeds.0.weight f4 [3, 2]
0.15534505 -0.13032748 -0.45616123 0.45702642 0.01118527 -0.0758031
00000000: c612 1f3e 9174 05be f78d e9be 5eff e93e
00000010: 6c42 373c a83e 9bbd

embeds.1.weight f4 [8, 4]
-0.4876993 -0.16234304 -0.07074779 -0.39986983 0.14876524 0.07905225 0.06989243 0.17377663
0.26317194 0.049903225 -0.32614857 -0.07268996 -0.3807783 -0.103086114 0.058923915 0.03425581
0.4374433 0.17382982 -0.51575214 0.34650993 -0.16261537 0.27505422 0.8863173 -0.22984701
0.26382953 -0.79950017 -0.11231828 -0.02485519 -0.14008403 -0.4405737 -0.08964366 -0.9091603
00000000: b9b3 f9be 413d 26be 38e4 90bd bdbb ccbe
00000010: ea55 183e 25e6 a13d c323 8f3d 80f2 313e
00000020: 79be 863e 5367 4c3d f2fc a6be 79de 94bd
00000030: 60f5 c2be d01e d3bd 345a 713d d24f 0c3d
00000040: 91f8 df3e 7200 323e 5508 04bf c069 b13e
00000050: a584 26be e8d3 8c3e b1e5 623f 045d 6bbe
00000060: aa14 873e 0bac 4cbf 2007 e6bd 1d9d cbbc
00000070: 3072 0fbe e092 e1be 1897 b7bd bbbe 68bf

embeds.2.weight f4 [9, 5]
1.8195739 1.793908 -1.785814 1.7846397 2.3215933 0.030180259 -0.03438533 0.09174467
0.001543816 0.1498739 -0.56347096 -0.41804633 0.16561049 -0.47663042 -0.1286254 0.97723687
-2.1262696 -0.038280893 1.4779592 0.8099448 0.15268818 0.15294647 -0.12566295 0.202442
0.09406322 0.1677002 -0.8868709 -0.083532706 -0.062774725 -0.25577363 0.055701356 -0.030256473
-0.8208473 -0.037816823 -0.35796127 -0.90923566 -0.35775617 0.6710298 -1.4283972 0.18788521
-0.1586562 -0.028795777 0.12826982 -0.210899 -0.9003254
00000000: cce7 e83f c79e e53f 8e95 e4bf 136f e43f
00000010: fc94 1440 973c f73c a2d7 0cbd a1e4 bb3d
00000020: de59 ca3a 8b78 193e a23f 10bf 2b0a d6be
00000030: cc95 293e e708 f4be 60b6 03be 322c 7a3f
00000040: cd14 08c0 6dcc 1cbd c42d bd3f 8b58 4f3f
00000050: 4a5a 1c3e 009e 1c3e caad 00be f54c 4f3e
00000060: 38a4 c03d 9ab9 2b3e f909 63bf 3213 abbd
00000070: 0990 80bd c3f4 82be 1b27 643d 6cdc f7bc
00000080: 0c23 52bf d0e5 1abd b346 b7be abc3 68bf
00000090: d12b b7be 9cc8 2b3f b8d5 b6bf fb64 403e
000000a0: c576 22be 1fe5 ebbc 2a59 033e e8f5 57be
000000b0: ba7b 66bf

bn_cont.weight f4 [9]
1.9564147 1.209171 1.5294675 0.92572033 0.7699355 1.5995047 1.1842933 1.4629754
1.185145
00000000: cc6b fa3f 1ec6 9a3f 97c5 c33f 02fc 6c3f
00000010: 7e1a 453f 92bc cc3f ec96 973f c742 bb3f
00000020: d5b2 973f

bn_cont.bias f4 [9]
-0.8477312 -0.5768964 0.2934072 0.045392852 0.80730015 -0.334764 0.16719846 1.301228
0.27255985
00000000: e904 59bf 7caf 13bf 7839 963e dbed 393d
00000010: 39ab 4e3f 3066 abbe 1336 2b3e a48e a63f
00000020: f78c 8b3e

bn_cont.running_mean f4 [9]
72.47746 8.748995 2.0194988 0.18199994 10.950495 50.69348 254.02512 12334.699
2.2460613
00000000: 76f4 9042 e2fb 0b41 783f 0140 315e 3a3e
00000010: 3a35 2f41 20c6 4a42 6e06 7e43 ccba 4046
00000020: 78bf 0f40

bn_cont.running_var f4 [9]
810.24896 16.66132 14.120175 0.42108667 9.874983 1169.1366 20623.299 9.926634e+07
0.37019315
00000000: ef8f 4a44 624a 8541 3dec 6141 ac98 d73e
00000010: eeff 1d41 5f24 9244 991e a146 e455 bd4c
00000020: f589 bd3e

layers.0.weight f4 [100, 20]
-0.05485699 0.09235758 -0.01088691 -0.11688675 -0.42137852 -0.11713478 -1.104298 -0.036145743
0.20851637 -0.05769983 0.120642066 0.28293613 -0.0039044295 -0.4243608 0.052903388 -0.0012802826
0.9878129 -0.16497543 -0.42073664 0.08187812 0.4626953 -0.41102436 -0.7991845 0.14565945
0.23315467 -0.013027398 -0.31119922 0.065534145 0.37590355 -0.239271 0.1520932 -0.49761635
0.4685437 0.043697182 0.41865402 -0.2060341 0.05347014 -0.002123341 0.3860898 -0.42120105
-0.23535652 0.13963549 0.010580063 0.6998263 -0.0060434733 0.004302348 -0.06986909 -0.44962713
0.0412766 -0.11920942 -0.45727316 -0.22705373 -0.47943717 0.6468481 -0.0020200983 -0.38977927
0.03685516 0.3477759 0.022220857 -0.07962993 -0.14410411 0.15679951 0.22306316 0.5090469
0.33308747 -0.018963424 0.20446137 -0.12522532 -0.36092755 0.14014128 -0.44561255 -0.326534
-0.6229579 0.042597067 0.24633186 -0.6530086 -0.5665895 0.118159756 -0.35536814 -0.25785646
0.0063116397 0.07165981 -0.009131989 0.276919 0.07459523 -0.026100215 -0.009397415 -0.11884737
-0.16885406 0.014733557 -0.25890425 -0.7534061 -0.46030837 -0.030490305 0.23969735 -0.46520314
-0.09787112 0.30325863 0.09769361 -0.35919264 -0.21381849 0.1309428 0.1647694 -0.096138
-0.14720342 0.008207266 -0.35716382 -0.24354565 0.4613599 -0.26907647 -0.026471958 0.78826
0.056474324 -0.29056263 -0.14247374 -0.13994949 0.2579949 -0.6384576 -0.02353953 0.4933118
0.10927524 -0.055909533 -0.03554269 0.007685651 0.15983987 0.0030968082 0.1757295 0.32059595
0.12221646 0.56204385 0.41038135 -0.08122338 0.8094388 0.021552963 -0.36573634 0.9453974
0.06401061 0.15264393 0.1463469 -0.33149365 0.24808332 -0.30575716 -0.13733874 -0.08922212
-0.098559834 0.6816705 0.1114945 0.028718494 0.05896309 0.102447465 -0.08003801 0.60344905
-0.47196016 0.4653368 -1.0656755 -0.38258028 0.66548705 0.30352083 0.07904538 0.31161726
-0.061948955 0.09046075 0.3823315 -0.06635638 0.052095354 0.12435082 0.26430985 0.17014591
-0.33179945 0.14163159 -0.047914203 -0.18662022 -0.22290646 -0.32168365 0.12857129 -0.60751426
-0.7641407 -0.15394755 -0.16949144 0.0418743 -0.109599836 0.0112284515 0.12230651 -0.14372966
-0.5912823 -0.12498977 -0.17436942 -0.013653099 0.0047951974 -0.03381429 0.027663847 1.0864538
-0.11212525 0.2690197 0.40365952 -0.33010697 0.02573366 -0.47004393 -0.34586573 -0.10788826
0.09065473 -0.006667983 0.004215873 0.05626671 0.05510899 -0.47327608 0.09517687 0.17359953
-0.13596483 0.22167139 0.035937477 0.08334484 0.40329012 -0.09062426 -0.435679 -0.053260878
0.78811336 -0.69490033 -0.12737297 0.64042705 0.022437166 -0.008831049 0.29456994 0.44692624
-0.065114304 0.40906194 -0.13468403 -0.23601097 0.1349543 -0.23086692 -0.32411113 -0.33394545
0.29387188 -0.013899399 -0.97911704 -0.27258575 0.3928724 0.7458418 -0.11720742 0.015908444
0.063944444 0.028700627 0.12533118 0.28950733 0.07587565 0.11177866 0.051450785 -0.24960774
0.09590776 -0.002652842 0.2390758 0.73734426 0.4665024 -0.55183756 -0.19721504 -0.57184213
00000000: b9b1 60bd f925 bd3d 035f 32bc 5262 efbd
00000010: edbe d7be 5ce4 efbd a359 8dbf 8f0d 14bd
00000020: 5185 553e a856 6cbd 3013 f73d 01dd 903e
00000030: 75e1 7fbb d245 d9be 39b1 583d 28cf a7ba
00000040: 4ee1 7c3f 52ef 28be cb6a d7be b7af a73d
00000050: 66e6 ec3e c971 d2be 5b97 4cbf c027 153e
00000060: 19c0 6e3e de70 55bc 8155 9fbe c436 863d
00000070: 6e76 c03e 7503 75be 52be 1b3e 92c7 febe
00000080: f6e4 ef3e d1fb 323d d259 d63e 9afa 52be
00000090: 8103 5b3d c027 0bbb 90ad c53e aaa7 d7be
000000a0: 4d01 71be 9bfc 0e3e 0058 2d3c d127 333f
000000b0: 5408 c6bb b6fa 8c3b 8717 8fbd 8735 e6be
000000c0: a711 293d 1224 f4bd b51f eabe c680 68be
000000d0: ca78 f5be d697 253f a063 04bb 2691 c7be
000000e0: 70f5 163d af0f b23e 8408 b63c 0415 a3bd
000000f0: 0790 13be 0d90 203e ab6a 643e e650 023f
00000100: 718a aa3e 2f59 9bbc 525e 513e 113b 00be
00000110: 7fcb b8be 3281 0f3e 5427 e4be 772f a7be
00000120: 2b7a 1fbf 437a 2e3d 6b3e 7c3e 922b 27bf
00000130: 020c 11bf befd f13d d0f2 b5be c305 84be
00000140: dfd1 ce3b 61c2 923d 579e 15bc 54c8 8d3e
00000150: 62c5 983d 1ed0 d5bc 9ef7 19bc 4066 f3bd
00000160: 14e8 2cbe 0465 713c 198f 84be 39df 40bf
00000170: 8aad ebbe cec6 f9bc 3973 753e 1b2f eebe
00000180: a770 c8bd b744 9b3e 9613 c83d 19e8 b7be
00000190: 3cf3 5abe df15 063e 4fb9 283e 00e4 c4bd
000001a0: 7ebc 16be c577 063c 2dde b6be 0864 79be
000001b0: 5d37 ec3e 64c4 89be b8db d8bc 68cb 493f
000001c0: 9f51 673d a0c4 94be a3e4 11be eb4e 0fbe
000001d0: e817 843e f571 23bf f9d5 c0bc 5d93 fc3e
000001e0: b2cb df3d 6501 65bd 3695 11bd ead7 fb3b
000001f0: 10ad 233e d2f3 4a3b 6ff2 333e 2725 a43e
00000200: a04c fa3d 1be2 0f3f 811d d23e 7258 a6bd
00000210: 6237 4f3f d78f b03c cb41 bbbe 9005 723f
00000220: ff17 833d b14e 1c3e f6db 153e 89b9 a9be
00000230: 8e09 7e3e 348c 9cbe 87a2 0cbe 16ba b6bd
00000240: bdd9 c9bd f581 2e3f 3a57 e43d 0c43 eb3c
00000250: 4883 713d facf d13d f8ea a3bd a37b 1a3f
00000260: c3a4 f1be a040 ee3e 0e68 88bf 90e1 c3be
00000270: 5c5d 2a3f 1567 9b3e 8be2 a13d 4c8c 9f3e
00000280: 30be 7dbd 7c43 b93d f4c0 c33e dbe5 87bd
00000290: f061 553d a5ab fe3d 9f53 873e bb3a 2e3e
000002a0: 9ee1 a9be df07 113e af41 44bd 5f19 3fbe
000002b0: 9741 64be b8b3 a4be 31a8 033e 0e86 1bbf
000002c0: ba9e 43bf 6da4 1dbe 2a8f 2dbe 6384 2b3d
000002d0: e175 e0bd 8af7 373c d67b fa3d de2d 13be
000002e0: 475e 17bf a3fa ffbd e68d 32be 3fb1 5fbc
000002f0: 0821 9d3b da80 0abd 4b9f e23c eb10 8b3f
00000300: eca1 e5bd f3bc 893e 76ac ce3e c803 a9be
00000310: 66cf d23c 99a9 f0be 5015 b1be 85f4 dcbd
00000320: 30a9 b93d 187f dabb 4e25 8a3b ec77 663d
00000330: f7b9 613d 3e51 f2be 17ec c23d 13c4 313e
00000340: 5d3a 0bbe d3fd 623e 2d33 133d b3b0 aa3d
00000350: 0b7c ce3e 3699 b9bd 5111 dfbe 1428 5abd
00000360: ccc1 493f fde4 31bf 0f6e 02be 07f3 233f
00000370: 26ce b73c 1bb0 10bc dfd1 963e 84d3 e43e
00000380: a65a 85bd 9170 d13e 9cea 09be dcac 71be
00000390: 7631 0a3e 6168 6cbe e5f1 a5be e6fa aabe
000003a0: 6076 963e 4eba 63bc 6aa7 7abf 5c90 8bbe
000003b0: 9226 c93e 7def 3e3f 720a f0bd 6d52 823c
000003c0: 4ef5 823d 941d eb3c d156 003e 4e3a 943e
000003d0: b164 9b3d 36ec e43d 0fbe 523d 2c99 7fbe
000003e0: 4a6b c43d 4edb 2dbb 49d0 743e 98c2 3c3f
000003f0: 67d9 ee3e 3a45 0dbf bdf2 49be 3f64 12bf

layers.0.bias f4 [100]
0.36196798 -1.1047153 -0.5585321 -0.10034044 -0.42090353 0.6385866 0.031777706 -0.19285952
0.030925367 -0.53798217 -0.5934576 -1.1771088 -0.7642063 -0.0574544 -1.1714764 -0.64101505
-0.62938803 0.28616303 -0.4297061 -1.1920696 -0.17429301 -0.829759 -0.5230078 -0.4304504
-0.33181754 0.043876737 0.17785013 0.3832824 -0.6786643 -0.3287845 -0.7943807 -0.19910556
0.20753364 -1.3733722 -0.07843167 -0.11572874 -0.8157668 -1.3044516 -0.44988716 -0.5448595
-0.84262043 -0.47707665 -0.5019039 -0.58242834 -0.8261619 -0.19739377 -0.9700799 -0.5324096
-0.5422677 -0.82583946 -0.5868401 -0.5859598 -0.092395775 -0.001871005 -0.18498069 0.18308847
-1.5895559 -0.58095837 -0.17366171 -1.3715262 -0.05777012 -0.6893469 -0.58848095 -0.6698671
-0.71346676 -0.86324364 -0.692975 -0.6977668 -0.7592623 -0.33337915 0.26119277 -0.4063016
-0.6618145 -1.0561829 -0.6218998 0.39553562 -1.0144984 -0.24615136 0.26232442 -0.04210024
-0.6179819 -0.25560096 -1.2616254 -0.7496821 -0.41196764 -0.11780788 -1.4205251 -0.57660466
0.31095043 -0.7942583 -1.0204015 -1.4936904 0.59610456 -1.1496248 -0.8394878 -0.09139227
-0.23593412 -0.41387802 -1.514862 -1.1021751
00000000: de53 b93e 5067 8dbf f6fb 0ebf 4a7f cdbd
00000010: ab80 d7be 697a 233f 5729 023d f77c 45be
00000020: 3257 fd3c 33b9 09bf d6ec 17bf 80ab 96bf
00000030: 06a3 43bf 4e55 6bbd f0f2 95bf 9019 24bf
00000040: 931f 21bf f683 923e 7002 dcbe bd95 98bf
00000050: de79 32be 166b 54bf d7e3 05bf ff63 dcbe
00000060: fde3 a9be 18b8 333d 581e 363e 973d c43e
00000070: f2bc 2dbf 7156 a8be 895c 4bbf 54e2 4bbe
00000080: b383 543e a9ca afbf c9a0 a0bd 3103 edbd
00000090: 18d6 50bf 45f8 a6bf 9c57 e6be ea7b 0bbf
000000a0: f9b5 57bf 6443 f4be c67c 00bf 061a 15bf
000000b0: 597f 53bf 9821 4abe 2857 78bf ff4b 08bf
000000c0: 0ed2 0abf 376a 53bf 273b 16bf 7601 16bf
000000d0: ff39 bdbd 833c f5ba 946b 3dbe 8b7b 3b3e
000000e0: 9176 cbbf b0b9 14bf 60d4 31be 2c8e afbf
000000f0: 5da0 6cbd 0a79 30bf b0a6 16bf 697c 2bbf
00000100: c2a5 36bf 89fd 5cbf cf66 31bf d8a0 32bf
00000110: 045f 42bf acb0 aabe 0fbb 853e c306 d0be
00000120: ad6c 29bf 0031 87bf d334 1fbf a583 ca3e
00000130: 15db 81bf 1a0f 7cbe 634f 863e 4d71 2cbd
00000140: 1034 1ebf 21de 82be f17c a1bf 2beb 3fbf
00000150: 6ced d2be 4245 f1bd c4d3 b5bf 5d9c 13bf
00000160: e534 9f3e 8354 4bbf 849c 82bf 3f31 bfbf
00000170: 4f9a 183f e826 93bf ace8 56bf df2b bbbd
00000180: b798 71be d2e7 d3be ffe6 c1bf 1314 8dbf

layers.2.weight f4 [100]
1.2451059 0.78321177 0.8565705 0.9867439 0.8604057 0.7836283 0.852574 1.2290227
0.84046006 0.90059215 1.4445236 1.0937822 0.7511211 0.64522207 1.6351438 1.0665715
0.9669972 0.934467 0.62252325 1.4604367 0.7471416 1.3044478 1.1711311 1.091252
0.6364876 0.63958 0.7823416 1.0242871 0.92627525 0.7908326 1.1917809 1.0908709
0.9107927 0.9618939 1.1668512 0.7817349 1.3423252 1.5440772 0.61784023 1.4557631
1.6995543 0.90465385 1.1291893 1.1124386 1.406841 1.233766 1.4984982 0.57996756
0.892231 1.3298476 1.0669595 0.49010208 1.0532876 0.94583863 1.0061654 0.96212494
1.3839897 0.89640903 0.9662391 1.384789 0.84912515 1.0102395 1.2346796 1.0601482
0.725194 1.445111 1.2461886 1.1210918 1.5643927 0.8173784 0.8164381 1.1321244
1.2234056 1.2127478 0.9219266 0.938147 1.292736 1.1310191 0.70848113 1.2543068
0.8367234 1.0921081 1.66283 1.3132392 0.5919239 1.0806123 1.6107295 1.0013025
0.7950924 1.507265 1.3798385 0.9964287 1.0572488 1.614697 1.0864031 0.7178553
0.8006512 1.2195964 1.615895 1.1493173
00000000: a15f 9f3f 9180 483f 3448 5b3f 409b 7c3f
00000010: 8c43 5c3f dd9b 483f 4a42 5a3f 9e50 9d3f
00000020: 6428 573f 358d 663f 26e6 b83f 0e01 8c3f
00000030: 7949 403f 462d 253f 644c d13f 6a85 883f
00000040: 218d 773f 3b39 6f3f af5d 1f3f 97ef ba3f
00000050: ac44 3f3f 25f8 a63f a0e7 953f 25ae 8b3f
00000060: daf0 223f 84bb 233f 8a47 483f d71b 833f
00000070: 6020 6d3f 0174 4a3f 478c 983f a8a1 8b3f
00000080: b629 693f ae3e 763f 615b 953f c71f 483f
00000090: 50d1 ab3f 52a4 c53f c72a 1e3f 7256 ba3f
000000a0: ff8a d93f 6597 673f 4689 903f 6364 8e3f
000000b0: 5e13 b43f 0bec 9d3f cace bf3f c178 143f
000000c0: 4069 643f 7238 aa3f 2192 883f a9ee fa3e
000000d0: 21d2 863f 7b22 723f 07ca 803f d24d 763f
000000e0: 9326 b13f 107b 653f 725b 773f c440 b13f
000000f0: 4460 593f 874f 813f fb09 9e3f f0b2 873f
00000100: 50a6 393f 66f9 b83f 1c83 9f3f f07f 8f3f
00000110: 053e c83f b63f 513f 1602 513f 74e9 903f
00000120: 8e98 9c3f 523b 9b3f 6203 6c3f 672a 703f
00000130: 6078 a53f 3cc5 903f 055f 353f 208d a03f
00000140: 8133 563f 33ca 8b3f 9dd7 d43f 3918 a83f
00000150: 5388 173f 8151 8a3f 622c ce3f ae2a 803f
00000160: 2d8b 4b3f 0fee c03f 8c9e b03f f415 7f3f
00000170: ee53 873f 64ae ce3f 420f 8b3f 5dc5 373f
00000180: 7af7 4c3f bc1b 9c3f a6d5 ce3f d41c 933f

layers.2.bias f4 [100]
0.7337348 0.21939385 0.32977358 0.552012 0.5370514 0.5769827 0.36753863 0.5470086
0.38785103 0.21098214 0.54999655 0.18040553 0.09470202 0.04014573 0.21338125 0.24749212
0.29752105 0.5950681 0.24280816 0.40497872 0.1722685 0.27208227 0.14126284 0.42245576
0.22892445 0.0965656 0.13585255 0.6265485 0.048517533 0.4233967 0.1896858 0.47234508
0.40948015 0.24383482 0.4183707 0.2904548 0.2039853 0.057421893 0.08941683 0.639933
0.4318318 0.26784557 0.29464045 0.2350374 0.2626467 0.7036187 0.4158938 0.025519421
0.09621859 0.43389025 0.27410704 0.048154686 0.5644698 0.4521596 0.37414345 0.5551679
0.23422153 0.16613945 0.17164867 0.23717315 0.52545273 0.337086 0.2609844 0.35823518
0.0041565485 0.5838265 0.47417814 0.15258338 0.38825363 0.13863552 0.49671865 0.29407322
0.3163888 0.21209186 0.5405575 0.5838715 0.32051745 0.58487755 0.28586164 0.67085975
0.37391242 0.32330692 0.3319092 0.4271894 0.0010067923 0.5378162 0.19914207 0.17493604
0.1676643 0.40960604 0.26046768 0.19959885 0.7638338 0.33344793 0.28082412 0.15052566
0.22624956 0.40840703 0.3147883 0.23609436
00000000: 0bd6 3b3f c8a8 603e 15d8 a83e a950 0d3f
00000010: 337c 093f 23b5 133f 062e bc3e c108 0c3f
00000020: 6994 c63e b40b 583e 93cc 0c3f 3abc 383e
00000030: 22f3 c13d d96f 243d 9d80 5a3e 936e 7d3e
00000040: ae54 983e 6256 183f b4a2 783e 5f59 cf3e
00000050: 2767 303e 5e4e 8b3e 35a7 103e 1f4c d83e
00000060: 2c6b 6a3e 2fc4 c53d ee1c 0b3e 7c65 203f
00000070: 52ba 463d 74c7 d83e ff3c 423e 37d7 f13e
00000080: 62a7 d13e d6af 793e af34 d63e 7eb6 943e
00000090: 86e1 503e 3833 6b3d 2c20 b73d a6d2 233f
000000a0: 0f19 dd3e 0e23 893e 1ddb 963e a5ad 703e
000000b0: a179 863e 5b20 343f 08f0 d43e 1b0e d13c
000000c0: 410e c53d dd26 de3e c257 8c3e d93d 453d
000000d0: 1881 103f 7781 e73e bb8f bf3e 7c1f 0e3f
000000e0: c5d7 6f3e 7620 2a3e abc4 2f3e 85dd 723e
000000f0: 1284 063f 8996 ac3e bf9f 853e 9a6a b73e
00000100: a833 883b a775 153f 7ac7 f23e d13e 1c3e
00000110: 2ec9 c63e 78f6 0d3e e851 fe3e c490 963e
00000120: b6fd a13e 9c2e 593e fa61 0a3f 9a78 153f
00000130: dd1a a43e 89ba 153f 755c 923e 77bd 2b3f
00000140: 7371 bf3e 7c88 a53e 01f0 a93e 92b8 da3e
00000150: 58f6 833a 53ae 093f e6eb 4b3e 6f22 333e
00000160: 31b0 2b3e e2b7 d13e 055c 853e a463 4c3e
00000170: 9d8a 433f b0b9 aa3e 2ec8 8f3e 6623 1a3e
00000180: f7ad 673e ba1a d13e ef2b a13e b8c2 713e

layers.2.running_mean f4 [100]
0.50580275 0.17372434 0.6735446 0.9251545 0.90162575 0.862364 0.79160297 0.36665273
0.5667169 0.04615086 0.27310815 0.05433851 0.114300266 0.2746629 0.03209988 0.048501678
0.19278757 0.48696804 0.1717209 0.17325285 0.23720747 0.14812355 0.040406838 0.37488323
0.45894375 0.27310562 0.66574854 0.6081919 0.040755276 0.69347376 0.034917593 0.44155946
0.75676024 0.10402467 0.21175767 0.31458297 0.0380488 0.007644888 0.14389026 0.1752596
0.07366073 0.22977504 0.08738721 0.2002435 0.036058486 0.47291514 0.1759533 0.02366722
0.040088356 0.2063687 0.07517101 0.024369229 0.4083772 0.4248297 0.1916609 0.6113041
0.02467699 0.04146674 0.10050589 0.02807756 0.6100745 0.17488907 0.13835132 0.13507031
0.2741265 0.18540417 0.19542748 0.047385626 0.17229027 0.0827481 0.59934115 0.085090384
0.120626375 0.05391035 0.4881217 0.6191884 0.0676536 1.0439428 0.57044625 0.4004538
0.3358526 0.11977061 0.04561693 0.19516373 0.29103574 1.0747571 0.019191949 0.03228609
0.33577982 0.087492004 0.086120024 0.061414454 0.59924227 0.048448127 0.12863271 0.32623687
0.3717222 0.27715713 0.06268606 0.033548392
00000000: 4a7c 013f cbe4 313e 6b6d 2c3f edd6 6c3f
00000010: f2d0 663f e3c3 5c3f 7ea6 4a3f e8b9 bb3e
00000020: 5c14 113f af08 3d3d d5d4 8b3e 0f92 5e3d
00000030: 4216 ea3d 9ea0 8c3e 2a7b 033d b2a9 463d
00000040: 1b6a 453e e053 f93e 9bd7 2f3e 3269 313e
00000050: 84e6 723e b3ad 173e a481 253d b2f0 bf3e
00000060: adfa ea3e 80d4 8b3e 7f6e 2a3f 77b2 1b3f
00000070: 01ef 263d 7f87 313f c005 0f3d 1514 e23e
00000080: 0abb 413f e30a d53d 01d7 583e 0511 a13e
00000090: 0fd9 1b3d f881 fa3b f857 133e 4177 333e
000000a0: 70db 963d 264a 6b3e 11f8 b23d a20c 4d3e
000000b0: 10b2 133d ef21 f23e 1a2d 343e c2e1 c13c
000000c0: b033 243d 5152 533e 42f3 993d faa1 c73c
000000d0: d116 d13e 4783 d93e c142 443e 6d7e 1c3f
000000e0: 6627 ca3c 07d9 293d 08d6 cd3d e902 e63c
000000f0: d82d 1c3f 1f16 333e f8ab 0d3e df4f 0a3e
00000100: 4f5a 8c3e 97da 3d3e 241e 483e 6e17 423d
00000110: dc6c 303e d677 a93d 6c6e 193f de43 ae3d
00000120: f60a f73d 19d1 5c3d 16eb f93e 2283 1e3f
00000130: f88d 8a3d eb9f 853f c408 123f 4808 cd3e
00000140: dff4 ab3e 4b4a f53d d1d8 3a3d 00d9 473e
00000150: a302 953e a491 893f 6f38 9d3c 6b3e 043d
00000160: 55eb ab3e 022f b33d b25f b03d b98d 7b3d
00000170: f167 193f 8b71 463d 4bb8 033e 8508 a73e
00000180: 5f52 be3e 8ae7 8d3e 8d61 803d 0a6a 093d

layers.2.running_var f4 [100]
0.71371716 0.20289963 1.9270196 2.536025 2.5895224 0.9429828 1.16054 0.53060174
0.6997332 0.039139345 0.3449339 0.076076604 0.07328667 0.28526515 0.034207575 0.045709457
0.1763633 0.4440185 0.15811084 0.25470868 0.31893107 0.19350027 0.044893876 0.455563
0.54038525 0.31481412 0.8063366 0.7433586 0.044662952 1.0848817 0.02886518 0.5670042
1.238578 0.09014451 0.31002203 0.30642045 0.042338062 0.004867616 0.13466233 0.14691697
0.070347644 0.30975702 0.07166591 0.27297574 0.03172624 0.6266144 0.24890779 0.012266609
0.041685723 0.2750278 0.05970022 0.015121726 0.5712615 0.47873768 0.20407243 0.6018117
0.024915341 0.037751008 0.08962988 0.022041129 0.5947856 0.17495897 0.34553823 0.12545414
0.37510544 0.19204386 0.20707767 0.06861261 0.29214025 0.09822967 0.58303654 0.07869668
0.16163358 0.05463254 0.505938 0.71578753 0.068753496 3.675977 0.7161565 0.5429362
0.43273413 0.098732196 0.03913175 0.24344116 0.28995186 3.6020133 0.012617729 0.024766052
0.29704362 0.077805355 0.1675233 0.063989356 0.525195 0.054969445 0.2447721 0.4850621
0.54519945 0.36508983 0.07201536 0.02517459
00000000: 2bb6 363f ecc4 4f3e 94a8 f63f 3c4e 2240
00000010: bcba 2540 5267 713f 938c 943f 84d5 073f
00000020: b721 333f 9450 203d 2d9b b03e 0dce 9b3d
00000030: 5217 963d 460e 923e 3e1d 0c3d d739 3b3d
00000040: 9598 343e 6556 e33e cfe7 213e 2d69 823e
00000050: ef4a a33e ef24 463e a4e2 373d 8e3f e93e
00000060: b056 0a3f 512f a13e 136c 4e3f c04c 3e3f
00000070: 80f0 363d 67dd 8a3f ac76 ec3c 3027 113f
00000080: b989 9e3f af9d b83d 35bb 9e3e 24e3 9c3e
00000090: ad6a 2d3d 8680 9f3b ece4 093e 6771 163e
000000a0: 6d12 903d 7998 9e3e 94c5 923d 7ac3 8b3e
000000b0: 60f3 013d cd69 203f afe1 7e3e e3f9 483c
000000c0: a6be 2a3d 72d0 8c3e 3888 743d 1ec1 773c
000000d0: 323e 123f 1b1d f53e 5df8 503e 5510 1a3f
000000e0: 421b cc3c cda0 1a3d df8f b73d 998f b43c
000000f0: de43 183f 7228 333e 63ea b03e 0d77 003e
00000100: d20d c03e 25a7 443e 2b0c 543e c584 8c3d
00000110: 6893 953e a32c c93d e241 153f ba2b a13d
00000120: 4683 253e 5fc6 5f3d 2785 013f da3d 373f
00000130: a2ce 8c3d 3543 6b40 0856 373f defd 0a3f
00000140: 548f dd3e 1b34 ca3d 9d48 203d a448 793e
00000150: 9274 943e 6387 6640 97ba 4e3c 2de2 ca3c
00000160: 1a16 983e 6a58 9f3d 3a8b 2b3e da0c 833d
00000170: 2e73 063f a427 613d 8aa5 7a3e 0f5a f83e
00000180: 3192 0b3f 0eed ba3e ca7c 933d f13a ce3c

layers.4.weight f4 [100, 100]
0.10234182 0.18305008 -0.3578539 -0.31910944 -0.3751886 0.015477942 -0.01649416 -0.06141626
-0.043188497 0.35324568 0.19337924 -0.13123918 0.49275726 0.25227612 -0.3241281 0.15446596
0.12919779 0.059302513 -0.044702332 -0.16984376 -0.17056479 -0.28169012 -0.41477 -0.005969468
0.16890098 -0.18115728 0.21359104 0.08503721 -0.48031193 0.11303993 -0.6449535 0.09032875
-0.1180197 0.29996377 -0.1418411 0.110184096 0.28264317 -0.2165276 0.36927775 0.25115678
-0.44564906 0.120957434 0.055397484 -0.051082283 0.5015664 0.19784667 -0.04466211 0.14319894
-0.5423803 0.44491985 -0.9362661 -0.28050783 0.07476771 -0.09870531 0.15302199 0.123154454
-0.23414499 -0.01466519 -0.05448168 -0.3875061 0.22614446 0.2265269 -0.29165897 -0.49415922
0.290047 -0.52893573 -0.45334533 0.44880334 -0.8767348 0.40853763 0.09972136 -0.63901645
-0.28038597 0.43478742 0.39595562 -0.02785919 -0.08138883 -0.31119174 -0.2187971 0.026892986
0.12801655 0.19912498 0.70459914 0.11843718 0.07572532 -0.2823015 -0.5951731 0.56112975
0.39818045 0.042334363 -0.19663456 0.014200955 0.082435034 -0.4357791 -0.59774965 0.5111454
0.19130726 0.15357102 0.86395603 -0.030498786 -0.5698348 -0.27138653 0.19904637 0.16505751
0.11903773 -0.18397863 -0.939549 -0.36676762 0.03506275 0.14177963 -0.14679307 -0.023139248
0.06118814 0.28698996 -0.037990548 0.3015302 0.023505542 -0.09557306 -0.14829795 0.60010207
-0.087599084 0.07172941 0.065536894 0.121867105 0.017613988 -0.09951538 0.054486703 -0.01635776
0.09394408 0.050178163 0.11793868 -0.51776177 0.0028326046 0.1062641 -0.35991248 -0.5428392
0.14243229 0.42329714 -0.063374735 -0.36557603 -0.33203948 0.01990573 -0.653044 0.18790618
0.15139683 -0.60654145 0.41423553 -0.1572664 -0.0016114231 -0.2687624 0.08474774 0.009227598
-0.3793561 0.03565694 -0.303171 0.10606288 0.09684793 -0.34841713 -0.17215781 -0.29591256
-0.0493006 0.3057685 0.40174925 0.056144487 -0.028603012 -0.019010408 0.011067435 0.47337374
0.032372314 -0.061239045 0.08957211 0.14066455 -0.1539267 -0.19498959 0.07044468 0.06149262
-0.27757713 0.013442546 -0.031129792 -0.13729988 0.14671576 0.058012746 -0.1401487 0.036870226
-0.18697867 0.017193712 -0.43081734 0.07303661 0.15698025 -0.35847867 -0.030351173 0.13809507
0.19835202 0.23427515 0.19919318 -0.0021751488 -0.036974777 0.11008937 -0.012998835 -0.23978974
-0.6469754 -0.07263511 0.32820436 0.08691926 0.034388393 -0.8636569 -0.105281755 0.0840787
-0.17562357 0.3874615 -0.23126468 -0.101007685 0.06841799 -0.2009161 0.3668486 0.014565933
-0.6724011 0.070876196 0.10778146 0.15862943 0.046902787 0.023048807 -0.12959005 0.14862464
0.22233793 0.076197185 -0.113253586 0.07493071 -0.26876384 0.26711702 -0.053064313 -0.40229663
-0.09337241 0.10194377 -0.26809418 0.046620257 -0.077044606 0.07812499 -0.36594376 -0.517301
-0.4981984 -0.0759771 -0.577533 -0.1699093 0.0915128 -0.36283758 0.03915926 -0.46625793
-0.41153222 -0.08641611 0.19180383 -0.23868784 0.035981882 -0.8341443 -0.32710883 -0.797664
00000000: 9798 d13d 7b71 3b3e a038 b7be 5062 a3be
00000010: b818 c0be 3297 7d3c c31e 87bc 9e8f 7bbd
00000020: 6ce6 30bd 9edc b43e 3505 463e 9063 06be
00000030: ae4a fc3e 562a 813e 1ef4 a5be 532c 1e3e
00000040: 6d4c 043e 31e7 723d cb19 37bd 86eb 2dbe
00000050: 89a8 2ebe b039 90be bc5c d4be 879b c3bb
00000060: 61f4 2c3e 4b81 39be 9cb7 5a3e fd27 ae3d
00000070: 72eb f5be 7b81 e73d ac1b 25bf 48fe b83d
00000080: 50b4 f1bd da94 993e cb3e 11be 33a8 e13d
00000090: 9bb6 903e 69b9 5dbe f911 bd3e 9f97 803e
000000a0: 1d2c e4be 88b8 f73d 79e8 623d a83b 51bd
000000b0: a866 003f 5198 4a3e 9eef 36bd bea2 123e
000000c0: 6fd9 0abf 89cc e33e 23af 6fbf b99e 8fbe
000000d0: d01f 993d 0226 cabd ccb1 1c3e 6738 fc3d
000000e0: b4c3 6fbe 4446 70bc 2f28 5fbd 3367 c6be
000000f0: 6a92 673e abf6 673e 5354 95be 7002 fdbe
00000100: 0a81 943e 5568 07bf e11c e8be 8dc9 e53e
00000110: b171 60bf d82b d13e b63a cc3d 9596 23bf
00000120: c08e 8fbe 759c de3e b2ba ca3e f538 e4bc
00000130: 30af a6bd 8654 9fbe 590c 60be ae4e dc3c
00000140: c516 033e 6be7 4b3e 9c60 343f 318f f23d
00000150: e015 9b3d d289 90be 445d 18bf 33a6 0f3f
00000160: 4fde cb3e cc66 2d3d 925a 49be 1fab 683c
00000170: b3d3 a83d 701e dfbe 1f06 19bf 6dda 023f
00000180: 0de6 433e b941 1d3e 392c 5d3f 97d8 f9bc
00000190: b2e0 11bf 2df3 8abe d0d2 4b3e d604 293e
000001a0: 0eca f33d e564 3cbe 4986 70bf f7c8 bbbe
000001b0: f59d 0f3d ae2e 113e ec50 16be 858e bdbc
000001c0: 6aa0 7a3d 59f0 923e fa9b 1bbd 2b62 9a3e
000001d0: b28e c03c cfbb c3bd 6bdb 17be 4aa0 193f
000001e0: 2667 b3bd dee6 923d 3538 863d 7695 f93d
000001f0: 364b 903c b8ce cbbd 732d 5f3d b600 86bc
00000200: c165 c03d 9e87 4d3d d689 f13d 098c 04bf
00000210: 38a3 393b fea0 d93d 7346 b8be 83f7 0abf
00000220: c5d9 113e 67ba d83e 9dca 81bd c82c bbbe
00000230: 1401 aabe 5711 a33c e42d 27bf 7a6a 403e
00000240: c507 1b3e 4d46 1bbf ae16 d43e 710a 21be
00000250: 6336 d3ba 3a9b 89be 3990 ad3d 5a2f 173c
00000260: f63a c2be 030d 123d 3b39 9bbe 7f37 d93d
00000270: 3558 c63d bb63 b2be 234a 30be da81 97be
00000280: 6def 49bd b08d 9c3e 14b2 cd3e c3f7 653d
00000290: dd50 eabc b7bb 9bbc 3054 353c 0b5e f23e
000002a0: d598 043d cbd5 7abd 9571 b73d 5e0a 103e
000002b0: f69e 1dbe 5aab 47be 4d45 903d afdf 7b3d
000002c0: 971e 8ebe 203e 5c3c e803 ffbc 5798 0cbe
000002d0: a83c 163e c69e 6d3d 2483 0fbe 3c05 173d
000002e0: 5677 3fbe d4d9 8c3c 1794 dcbe 3894 953d
000002f0: 6ebf 203e 848a b7be 06a3 f8bc cb68 0d3e
00000300: cb1c 4b3e d3e5 6f3e 4cf9 4b3e f18c 0ebb
00000310: dd72 17bd 8976 e13d 11f9 54bc 718b 75be
00000320: 2ea0 25bf b7c1 94bd 670a a83e ba02 b23d
00000330: d8da 0c3d 9e18 5dbf f69d d7bd 7431 ac3d
00000340: aad6 33be 5b61 c63e a6d0 6cbe 1edd cebd
00000350: bb1e 8c3d f3bc 4dbe 94d3 bb3e f3a5 6e3c
00000360: 7a22 2cbf 8a27 913d 87bc dc3d c16f 223e
00000370: 231d 403d dad0 bc3c 41b3 04be 0f31 183e
00000380: 8eac 633e 450d 9c3d 7ff1 e7bd 4675 993d
00000390: 6a9b 89be 90c3 883e f759 59bd d3f9 cdbe
000003a0: 093a bfbd e5c7 d03d a443 89be e2f4 3e3d
000003b0: 90c9 9dbd ffff 9f3d fb5c bbbe d76d 04bf
000003c0: dc13 ffbe e299 9bbd 34d9 13bf b4fc 2dbe
000003d0: 106b bb3d d9c5 b9be 7665 203d 5cb9 eebe
000003e0: 5ab4 d2be eefa b0bd 3968 443e 966a 74be
000003f0: bd61 133d 7b8a 55bf cf7a a7be b533 4cbf

layers.4.bias f4 [100]
-0.27328447 0.3055286 0.28626254 0.23392184 0.39436668 0.1578029 -0.113066874 0.52259284
1.018731 -1.372254 -0.09040637 0.5340943 -0.27860168 -0.7287346 0.62533534 -0.39592648
0.7784235 -0.12630463 -0.938628 -0.22282633 -0.4201098 -0.4638209 -0.35195816 -0.141617
0.31789568 -0.2509151 -0.30735204 -0.19735637 -0.3104399 -0.2458909 -0.5773201 -0.5112462
0.70513165 -0.17007326 0.15248561 0.76837546 0.5474418 1.1224777 -0.18601716 -0.47469518
-0.07890962 -0.8047892 0.48586103 0.49865264 -0.13889188 0.014009006 0.4174257 -0.13765427
0.67552924 0.25106093 0.26844808 0.22849762 -0.69379103 -0.006523584 0.06852226 -0.23802198
-0.32678017 0.13172063 0.27415657 0.8075356 0.51553124 -1.4647417 -0.09821888 0.12466826
0.03570561 0.61286086 0.0054684216 0.66756195 -0.7320877 0.44698614 0.9218216 0.1253367
0.13480623 -0.45498356 0.5081225 -0.8575668 0.10820451 0.25344414 -0.25297105 0.49236944
0.30245572 0.14940052 -0.6438364 0.14965391 0.3192249 0.41964585 0.7447122 0.5048125
-0.34921223 0.62847924 0.19755006 -0.48554116 -0.0056966883 0.37417573 -0.15117028 1.1989629
-0.27627814 -0.05380698 0.05047866 0.4667885
00000000: f1eb 8bbe 3f6e 9c3e 0191 923e 3589 6f3e
00000010: 6eea c93e 1597 213e 9b8f e7bd a5c8 053f
00000020: c765 823f 05a6 afbf fa26 b9bd 67ba 083f
00000030: e1a4 8ebe 5a8e 3abf fa15 203f e0b6 cabe
00000040: c346 473f 0056 01be ed49 70bf 962c 64be
00000050: a218 d7be ef79 edbe dc33 b4be 0c04 11be
00000060: 39c3 a23e f277 80be 3f5d 9dbe ca17 4abe
00000070: fbf1 9ebe d3ca 7bbe 40cb 13bf 08e1 02bf
00000080: 8283 343f af27 2ebe 3025 1c3e 41b4 443f
00000090: 2525 0c3f 59ad 8f3f 487b 3ebe 3f0b f3be
000000a0: 5e9b a1bd aa06 4ebf c7c2 f83e 664f ff3e
000000b0: ac39 0ebe 0886 653c d2b8 d53e 3ef5 0cbe
000000c0: 7cef 2c3f 0f8b 803e 0772 893e 48fb 693e
000000d0: 4a9c 31bf cac3 d5bb 6655 8c3d 09bc 73be
000000e0: bb4f a7be c6e1 063e 405e 8c3e a7ba 4e3f
000000f0: dbf9 033f a87c bbbf fb26 c9bd 1352 ff3d
00000100: 0c40 123d 73e4 1c3f 7230 b33b 57e5 2a3f
00000110: 196a 3bbf 5edb e43e 80fc 6b3f 4458 003e
00000120: a50a 0a3e 9bf3 e8be 5114 023f 7f89 5bbf
00000130: 539a dd3d 6ec3 813e 6c85 81be d917 fc3e
00000140: 7adb 9a3e 73fc 183e 76d2 24bf e03e 193e
00000150: 7271 a33e d2db d63e 75a5 3e3f 643b 013f
00000160: f2cb b2be 04e4 203f 904a 4a3e da98 f8be
00000170: 49ab babb f693 bf3e 62cc 1abe 9e77 993f
00000180: 5474 8dbe b564 5cbd b6c2 4e3d e7fe ee3e

layers.6.weight f4 [100]
0.9578483 0.9559915 0.94860727 0.9629669 0.8948672 0.7542152 0.992563 0.8086267
0.88862383 1.008132 1.1328871 0.84005314 1.0037074 0.991588 0.8125291 0.8902876
0.8473759 0.90370667 1.1109215 1.0984302 1.0683682 1.2018846 0.9544269 0.85202336
0.7642274 1.0965252 1.0887183 1.0803468 0.98151654 0.976357 0.9858489 1.0240289
0.83294094 0.9839052 0.83598435 0.81475496 0.8658843 0.7681365 0.9964414 0.971002
1.0541028 0.8376875 0.7505474 0.94640476 0.71076745 0.89559126 0.8222733 1.0895629
0.7828373 0.99024135 0.91368806 0.8679175 1.0924159 0.90723133 1.0413072 0.816442
1.1745017 0.92712784 0.8267657 0.86249536 1.096232 0.7860317 1.0377501 1.0428455
0.80223775 0.8992697 0.9918181 0.8663568 0.8952113 0.7251164 0.7323474 0.9576789
0.99319434 1.0641983 0.9060992 0.85847783 1.095035 1.0676917 1.050276 0.930593
1.0677277 1.0128611 0.8755275 0.9399025 0.86875534 0.7477418 1.024086 0.9420369
1.058366 0.8931702 0.7593046 0.98522556 1.0652177 0.8827959 1.0475285 0.72960174
0.8868457 0.9460337 0.9982711 0.96065766
00000000: 8c35 753f dcbb 743f edd7 723f 0085 763f
00000010: 0416 653f 3f14 413f 9c18 7e3f 2902 4f3f
00000020: da7c 633f 780a 813f 7202 913f b90d 573f
00000030: 7c79 803f b6d8 7d3f e801 503f e3e9 633f
00000040: a1ed 583f 5259 673f ad32 8e3f 5c99 8c3f
00000050: 4ac0 883f 5bd7 993f 5255 743f 341e 5a3f
00000060: 68a4 433f f05a 8c3f 1f5b 8b3f ce48 8a3f
00000070: ab44 7b3f 88f2 793f 9860 7c3f 6113 833f
00000080: 9e3b 553f 36e1 7b3f 1203 563f c893 503f
00000090: 98aa 5d3f 98a4 443f c916 7f3f 9693 783f
000000a0: d7ec 863f b072 563f e023 403f 9547 723f
000000b0: dbf4 353f 7845 653f 8180 523f cc76 8b3f
000000c0: 0668 483f 7580 7d3f 76e7 693f d72f 5e3f
000000d0: 49d4 8b3f 5040 683f 8e49 853f 5802 513f
000000e0: 1256 963f 4058 6d3f eba6 533f 7fcc 5c3f
000000f0: 5551 8c3f 6039 493f ffd4 843f f67b 853f
00000100: 745f 4d3f 8a36 663f cae7 7d3f 8fc9 5d3f
00000110: 912c 653f 3aa1 393f 1f7b 3b3f 722a 753f
00000120: fc41 7e3f a637 883f 1ef6 673f 34c5 5b3f
00000130: 1b2a 8c3f 1faa 883f 726f 863f 583b 6e3f
00000140: 4dab 883f 6fa5 813f 9222 603f 739d 703f
00000150: c066 5e3f 026c 3f3f 4015 833f 5529 713f
00000160: 8978 873f cda6 643f c961 423f be37 7c3f
00000170: 0e59 883f e9fe 613f 6a15 863f 2ec7 3a3f
00000180: 5208 633f 442f 723f b28e 7f3f a9ed 753f

layers.6.bias f4 [100]
0.20356157 0.31889313 0.32963595 0.2754108 0.24501477 0.04984672 0.23306614 0.13248044
0.15791717 0.22745644 0.28095773 0.26902044 0.28294864 0.3516616 0.15121607 0.18533026
0.14955036 0.12905821 0.36335096 0.40624347 0.2762958 0.28579572 0.27386302 0.14186196
0.1259127 0.35536888 0.34940556 0.36291128 0.25381973 0.36780906 0.17742838 0.18959258
0.24787033 0.27869573 0.23815247 0.24229933 0.19954643 0.11650027 0.336774 0.19402017
0.23640782 0.21790239 0.20262249 -0.029369727 -0.012371867 0.30942413 0.17096879 0.29836005
0.2514994 0.15474808 0.39569333 0.1384566 0.38806722 0.23982725 0.3233942 0.3949941
0.34473738 0.29054627 0.056618355 0.117112786 0.2395929 0.15855105 0.40162054 0.32138124
-0.0052283737 0.26862794 0.3265028 0.20416054 0.30864704 0.22897725 0.09718602 0.36463794
0.3307551 0.27513918 0.23506273 0.21269748 0.39712688 0.22098932 0.45842353 0.14157645
0.35906407 0.3377544 0.21319404 0.41738582 0.15473536 0.1310791 0.2630208 0.27783987
0.29340833 0.25280693 0.2982603 0.2437151 0.3317214 0.21467657 0.34392735 0.029987723
0.22782831 0.2690983 0.15713657 0.29050878
00000000: 7272 503e f645 a33e 0bc6 a83e a502 8d3e
00000010: 27e5 7a3e 132c 4c3d e4a8 6e3e f4a8 073e
00000020: 0ab5 213e 57ea 683e b1d9 8f3e 0cbd 893e
00000030: a5de 903e fd0c b43e 63d8 1a3e 37c7 3d3e
00000040: bb23 193e d627 043e 2309 ba3e 25ff cf3e
00000050: a576 8d3e d153 923e c637 8c3e 4344 113e
00000060: 42ef 003e e9f2 b53e 49e5 b23e 82cf b93e
00000070: a9f4 813e 7851 bc3e c9af 353e 8f24 423e
00000080: b8d1 7d3e 35b1 8e3e 3ede 733e 511d 783e
00000090: e655 4c3e b297 ee3d a46d ac3e 39ad 463e
000000a0: e414 723e ce21 5f3e 457c 4f3e c898 f0bc
000000b0: 5fb3 4abc d76c 9e3e 7112 2f3e a6c2 983e
000000c0: 88c4 803e 4876 1e3e 5198 ca3e 91c7 0d3e
000000d0: bfb0 c63e 4695 753e ed93 a53e ab3c ca3e
000000e0: 6b81 b03e 7bc2 943e a6e8 673d d4d8 ef3d
000000f0: d757 753e 355b 223e 35a1 cd3e 158c a43e
00000100: c752 abbb 9a89 893e 602b a73e 760f 513e
00000110: fc06 9e3e 0379 6a3e 7709 c73d d3b1 ba3e
00000120: bc58 a93e 0bdf 8c3e 49b4 703e 5ecd 593e
00000130: 3754 cb3e 064b 623e 7db6 ea3e 6bf9 103e
00000140: 3fd7 b73e 25ee ac3e 8a4f 5a3e 98b3 d53e
00000150: f272 1e3e 9939 063e aaaa 863e 0741 8e3e
00000160: 9e39 963e e96f 813e 93b5 983e 7490 793e
00000170: 63d7 a93e 2dd4 5b3e 3f17 b03e d0a8 f53c
00000180: d34b 693e 41c7 893e 69e8 203e 91bd 943e

layers.6.running_mean f4 [100]
2.2990112 1.6087859 1.5909506 1.2426875 1.2621143 0.5071927 1.0915049 0.58756095
1.754833 1.3995752 0.60993135 1.0457543 0.55999243 1.5369115 1.5081334 0.70624286
1.3393837 0.33104366 1.7204297 0.59296167 0.72141075 0.45157102 1.1173086 1.2088456
0.5448275 0.6195036 0.93792033 1.4537021 0.83083946 1.0407296 0.5831355 0.7542914
0.8047931 1.7451025 1.5961498 0.7767457 2.2410717 1.5826973 1.2564526 0.57322246
0.66920346 1.2532632 0.36684042 0.43218827 0.32940412 1.2428277 1.1199003 0.6804579
1.8644706 0.92976487 1.0956401 0.54844534 1.1057703 0.5921892 2.0209804 1.1399535
0.77506673 1.0184892 0.4383426 1.8678889 0.7073864 0.31461477 1.1143426 1.4228898
0.18356569 1.2658857 1.1119845 1.2418531 0.7213127 1.2860191 1.0052698 1.7247486
1.2886318 1.1643127 1.3283651 0.7058628 1.3654689 0.6288407 1.0529386 1.0162541
0.9621705 1.2459391 1.5501513 0.87967104 0.7265327 1.0501457 1.2505182 0.9351747
0.7362936 1.0323228 1.6520996 1.2838442 0.92536247 1.1883328 0.8238824 1.7923743
0.5700508 0.8067235 0.31289947 1.346295
00000000: 0023 1340 b2ec cd3f 45a4 cb3f 6210 9f3f
00000010: f68c a13f 61d7 013f 6fb6 8b3f 656a 163f
00000020: 5e9e e03f 4825 b33f 7624 1c3f 47db 853f
00000030: aa5b 0f3f 84b9 c43f 840a c13f 55cc 343f
00000040: ed70 ab3f 8e7e a93e 0a37 dc3f 56cc 173f
00000050: 60ae 383f 5134 e73e f803 8f3f 74bb 9a3f
00000060: d179 0b3f ca97 1e3f 8c1b 703f e912 ba3f
00000070: e5b1 543f a136 853f 5e48 153f 3e19 413f
00000080: ec06 4e3f 855f df3f a34e cc3f ced8 463f
00000090: b86d 0f40 d395 ca3f 70d3 a03f b5be 123f
000000a0: eb50 2b3f ee6a a03f 82d2 bb3e c847 dd3e
000000b0: a8a7 a83e fa14 9f3f e558 8f3f 7d32 2e3f
000000c0: f9a6 ee3f 1205 6e3f ef3d 8c3f ea66 0c3f
000000d0: e289 8d3f b699 173f be57 0140 ffe9 913f
000000e0: c66a 463f db5d 823f 716e e03e fc16 ef3f
000000f0: 4617 353f 3015 a13e c7a2 8e3f 4121 b63f
00000100: a5f8 3b3e 8b08 a23f 8255 8e3f 0bf5 9e3f
00000110: f3a7 383f 469c a43f aeac 803f 90c4 dc3f
00000120: e3f1 a43f 3308 953f de07 aa3f 6db3 343f
00000130: afc7 ae3f b4fb 203f b1c6 863f 9d14 823f
00000140: ce50 763f ef7a 9f3f 5c6b c63f 1f32 613f
00000150: 0cfe 393f 2d6b 863f fb10 a03f 9c67 6f3f
00000160: bd7d 3c3f 2723 843f 0078 d33f 0255 a43f
00000170: 8ee4 6c3f 4a1b 983f f5e9 523f 856c e53f
00000180: d9ee 113f 6e85 4e3f 5c34 a03e 6553 ac3f

layers.6.running_var f4 [100]
25.133429 10.975451 8.660026 8.277577 7.5931964 2.399326 8.066802 2.085076
8.412107 18.969217 2.5702114 10.19942 2.7868633 14.820268 5.308356 4.9927273
5.3445687 2.0597572 17.595604 1.9847051 2.6446702 3.0302627 8.341315 8.662699
1.72069 2.3501823 4.5489507 12.5526495 6.3574324 5.6294565 4.621004 4.897393
2.5078602 14.038584 12.046656 2.0989153 14.470341 7.531447 7.8384876 2.777291
4.3452764 12.967689 1.6037812 3.0428956 2.1499903 6.6853657 5.4509935 3.9286134
9.941502 5.9706182 4.998602 1.6107205 7.926694 2.963857 18.322363 5.4859114
2.867268 8.043498 2.0431395 11.05246 4.606547 1.3083335 6.5733333 11.012687
0.5233925 5.487963 6.10539 5.8794613 4.384524 6.2728987 4.54578 10.793004
8.364094 12.144284 6.944435 5.44031 11.955694 4.7405577 5.152185 6.796037
3.5797155 7.2545104 12.442815 4.6244936 3.8068953 7.264715 7.46756 3.7628188
3.4780705 5.9410677 12.473354 10.528937 4.0100884 8.010758 3.5859709 6.6080403
2.7112594 6.9347844 1.3098633 8.079918
00000000: 4311 c941 739b 2f41 778f 0a41 f570 0441
00000010: 77fb f240 8f8e 1940 9f11 0141 e371 0540
00000020: fe97 0641 f5c0 9741 587e 2440 d330 2341
00000030: f85b 3240 d11f 6d41 0dde a940 6cc4 9f40
00000040: b506 ab40 10d3 0340 ccc3 8c41 d10a fe3f
00000050: 4742 2940 d3ef 4140 0776 0541 6a9a 0a41
00000060: 923f dc3f 6369 1640 0191 9140 a7d7 4841
00000070: 1670 cb40 8224 b440 44df 9340 72b7 9c40
00000080: c880 2040 0a9e 6041 1abf 4041 a154 0640
00000090: 8486 6741 9d01 f140 e4d4 fa40 23bf 3140
000000a0: 810c 8b40 a77b 4f41 b448 cd3f cdbe 4240
000000b0: 7199 0940 84ee d540 8a6e ae40 676e 7b40
000000c0: 6410 1f41 4e0f bf40 8cf4 9f40 172c ce3f
000000d0: 7aa7 fd40 d5af 3d40 3394 9241 968c af40
000000e0: 5281 3740 2bb2 0041 ccc2 0240 e0d6 3041
000000f0: d568 9340 7977 a73f bf58 d240 f733 3041
00000100: 0dfd 053f 659d af40 5b5f c340 8c24 bc40
00000110: 054e 8c40 96bb c840 0877 9140 25b0 2c41
00000120: 54d3 0541 fd4e 4241 d038 de40 0517 ae40
00000130: 864a 3f41 a6b2 9740 b3de a440 2379 d940
00000140: 0f1a 6540 f324 e840 c515 4741 dafb 9340
00000150: 2ca4 7340 8c78 e840 40f6 ee40 06d2 7040
00000160: b598 5e40 3a1d be40 dc92 4741 8776 2841
00000170: a552 8040 112c 0041 8c80 6540 1175 d340
00000180: 4685 2d40 c1e9 dd40 9aa9 a73f 5847 0141

layers.8.weight f4 [1, 100]
0.132831 -0.10531219 -0.17820801 -0.12074285 0.13343833 0.09147193 -0.1679548 0.105062336
0.13325047 0.21740015 -0.22889148 0.14937876 -0.14558071 -0.20739238 0.15911655 0.13695042
0.0771168 0.14640728 -0.17899567 -0.20410112 -0.21852495 -0.203773 -0.17949422 0.12945859
0.10190466 -0.24905111 -0.16893995 -0.16126534 0.12941085 -0.18537468 0.14567436 -0.120918915
-0.1738872 -0.11630627 0.13678725 -0.13756628 0.1190667 0.10796246 -0.14215082 -0.09673032
-0.19644862 0.16604947 0.13810822 0.1797979 0.11545048 -0.072517194 0.11029293 -0.2130385
0.09795474 -0.14241025 -0.15780374 -0.12312147 -0.21437345 0.13847128 -0.15746395 -0.13953124
-0.22987181 0.14794452 0.09822848 0.09676094 -0.18930787 0.10374689 -0.21938057 -0.21648316
0.13338253 -0.14037076 -0.17806843 -0.08474355 -0.13540623 0.077176824 0.12068521 -0.14148788
-0.15573558 0.18824789 0.14320275 0.11557011 -0.13823357 -0.14706054 -0.19513953 0.12518033
-0.20138565 -0.2164911 0.1661167 -0.14677146 -0.11498399 0.12209683 -0.15547752 -0.19493574
-0.18391453 0.13888595 0.071899295 0.1618511 -0.19434462 0.11775882 -0.15327176 0.10266147
0.13586879 -0.18415676 0.14372474 -0.12056782
00000000: da04 083e ebad d7bd 297c 36be 0748 f7bd
00000010: 0fa4 083e a355 bb3d 58fc 2bbe ec2a d73d
00000020: d072 083e 259e 5e3e 8762 6abe bff6 183e
00000030: 1c13 15be ab5e 54be 73ef 223e bb3c 0c3e
00000040: 6aef 9d3d caeb 153e a44a 37be e2ff 50be
00000050: 01c5 5fbe dfa9 50be 55cd 37be cb90 043e
00000060: 64b3 d03d 4107 7fbe 98fe 2cbe be22 25be
00000070: 4784 043e dcd2 3dbe a92b 153e 56a4 f7bd
00000080: 7c0f 32be fb31 eebd f511 0c3e 2dde 0cbe
00000090: 3ed9 f33d 6c1b dd3d fc8f 11be 8c1a c6bd
000000a0: d429 49be df08 2a3e 3e6c 0d3e f11c 383e
000000b0: 4d71 ec3d e583 94bd 42e1 e13d c426 5abe
000000c0: 7f9c c83d fed3 11be 4e97 21be 1c27 fcbd
000000d0: b784 5bbe 6acb 0d3e 3b3e 21be 47e1 0ebe
000000e0: 8463 6bbe c57e 173e 032c c93d 9a2a c63d
000000f0: ecd9 41be 4079 d43d 4da5 60be c3ad 5dbe
00000100: 6e95 083e 5abd 0fbe 9257 36be 078e adbd
00000110: eea7 0abe e20e 9e3d cf29 f73d 33e2 10be
00000120: 2679 1fbe 0ec4 403e bea3 123e 06b0 ec3d
00000130: 1a8d 0dbe 0a97 16be a8d2 47be 462f 003e
00000140: 0a38 4ebe d8af 5dbe 7f1a 2a3e 424b 16be
00000150: ba7c ebbd e70d fa3d 8035 1fbe 3c9d 47be
00000160: 1754 3cbe 1e38 0e3e f03f 933d 4bbc 253e
00000170: 4702 47be 892b f13d 46f3 1cbe 2d40 d23d
00000180: 3021 0b3e 9793 3cbe 942c 133e 43ec f6bd
